dqn_model.pth (torch, 3691 bytes, 4 tensors)

fc1.weight f4 [64, 2]
00000000: 10fe 9dbd ec8a 01bf 28c8 3dbe 88a8 c6bf
00000010: 861b f4be 2041 4cbd 30b7 403d d322 a3bf
00000020: df3b 523f 301b 1f3e a260 6b3f 3aca 83be
00000030: bc83 613f 2ad1 bdbe e26a 09bf 40a7 0fbc
00000040: a0ff 983f e8fc b7bf 78d6 793e ed07 2c3e
00000050: bdfd 3dbe f55f 05bf 4e2f a93f e1ca 7ebe
00000060: 9ed2 c63f 191b f5be 37ee 47bf 4e57 a9bf
00000070: c593 d43f cc90 a1bd bc46 36bf 687d b7bf
00000080: 3698 f43f 93df d7bf 3692 0cbe 0bbc 943f
00000090: 001a 76be a984 22bf 744b cabd ced8 9a3f
000000a0: 3297 813f 4b8c be3c 009a dbbc 969b f6be
000000b0: 6186 543f 1239 3e40 4a99 13c0 0230 163e
000000c0: 68ca 01bf 4eb5 a9be 4be2 2abf 1b76 2ebf
000000d0: fec9 6cbc 7972 0fbf df5e 923e 3026 38bf
000000e0: 73c9 8f3f 24a1 3d3e f5ab 96be f214 52c0
000000f0: e832 ffbe 95da b43e 4278 34bf bc89 dd3c
00000100: 460a 133e c08b 333e c06c d0be f377 913e
00000110: e4b6 473f dcbc 573e c75f 17bf 9747 a9be
00000120: 6d24 3d3e 7ce5 913f e174 fbbd d79e e4be
00000130: 148c e5be dc7c b1bf 206d acbc 4027 3c3d
00000140: 67ad c53f 2a8b 60be 3ce0 6bbe 3048 2440
00000150: a10e 1040 a872 2ac0 db85 513f c890 3b40
00000160: 78b3 813f 1478 34bf 5485 833c 5b75 d3be
00000170: 2279 293f 8f32 8abf 4268 243f b436 7dbf
00000180: 2215 a63f b17f 62be 941a fc3f e5ef 103e
00000190: c135 a3bf 4d78 873f 7c8e 25bd 6464 68c0
000001a0: 1384 993f 8195 ae3e fea4 263f 4626 96be
000001b0: a164 debe b346 1cbf 4470 673f ffc8 13bf
000001c0: 6214 033f 03f2 cabe bb4b a8bf 3daf 10c0
000001d0: b73d 773f 82c3 763e 4fac 0ebf d0ee 17be
000001e0: 6548 09bf d2ed 13bf 211f 183e 22f6 1d3e
000001f0: 68ef 12bf e20f 24bf 26da 6fbe 06bd e0be
-0.07714474 -0.506026 -0.18533385 -1.5520182 -0.4767725 -0.049866796 0.0470497 -1.2745003
0.82122606 0.15537715 0.91944325 -0.25740224 0.88091636 -0.37073642 -0.53678715 -0.008767903
1.195301 -1.4374056 0.2439822 0.16799898 -0.18553825 -0.52099544 1.3217561 -0.2488208
1.5533025 -0.47872236 -0.7809786 -1.3229768 1.6607596 -0.07888946 -0.7120168 -1.4335146
1.9108951 -1.6865104 -0.1372765 1.1619886 -0.24033356 -0.63483673 -0.09877673 1.2097414
1.0124266 0.023260256 -0.026806831 -0.48165578 0.83017546 2.9722333 -2.306231 0.14666751
-0.5069947 -0.33146137 -0.66751546 -0.68148965 -0.014452456 -0.56034046 0.28588006 -0.7193327
1.1233352 0.18518502 -0.29428068 -3.2825284 -0.49843526 0.35323015 -0.70496 0.027043216
0.14359388 0.17533779 -0.4070797 0.28411826 0.78013444 0.21068138 -0.5913052 -0.3306243
0.18470927 1.1398158 -0.12278152 -0.44652435 -0.44833434 -1.3866229 -0.021048129 0.04593587
1.5443543 -0.21928087 -0.23034757 2.566906 2.2508929 -2.663248 0.8184487 2.9307117
1.0132895 -0.70495725 0.016054787 -0.41300473 0.6620046 -1.0796679 0.64221585 -0.98911595
1.2975199 -0.22119023 1.9695611 0.14154013 -1.2750779 1.0583588 -0.040419087 -3.6311274
1.1993431 0.34098437 0.6509551 -0.29326075 -0.4343615 -0.6104538 0.9040568 -0.5772857
0.51202977 -0.39637765 -1.3148111 -2.2606957 0.96578544 0.24098018 -0.5573167 -0.14837193
-0.5362609 -0.5778476 0.14855625 0.15425923 -0.57396555 -0.64086735 -0.23423061 -0.43894213

fc1.bias f4 [64]
00000000: 4019 cbbd 2c57 cebb 6cf8 0dbe 9a15 4740
00000010: 4aaf a1bb e63a 4940 008e 1640 1276 35bc
00000020: fa67 1840 b802 e23f 5c7b 9040 eb37 2d40
00000030: 9253 3e40 0b15 5840 c29c f13f affe 6440
00000040: 7b79 e03f 8798 1940 0596 8bbb 7fae d73f
00000050: c082 1b3f f03f 8dbe f482 9a3e f6c3 86bf
00000060: aa4f 9fbe ad84 1dbf c4c7 78bb 39dd 9c40
00000070: a197 9e3e 0f74 0140 5c3e 21c0 d770 95be
00000080: 0528 d33f f15e 03c0 abed 683e ae81 67bc
00000090: 6dfb f9be e96e fd3f 0c11 5a40 ddfe 28bf
000000a0: d355 e03f 4260 4f40 635b 8540 0d95 8c3f
000000b0: be97 8640 0d11 41be 4086 3140 7a98 1840
000000c0: 4bcd 3d40 96b6 133f 2495 a23d 598e c3ba
000000d0: 756c 823e 669f 8740 ab66 a5bb 17a2 4a40
000000e0: ccef 5840 bfe5 c440 a88c 293f d25a 8fbe
000000f0: 1f63 bebc e955 a33f c03f 0cbc 1567 20bf
-0.099169254 -0.006297013 -0.13864297 3.1106935 -0.004934226 3.1442199 2.352417 -0.011075513
2.3813462 1.765708 4.5150585 2.706538 2.9738507 3.3762844 1.8875964 3.5780447
1.7537073 2.3999345 -0.004259827 1.6850127 0.60746384 -0.27587843 0.30178034 -1.0528553
-0.31115466 -0.6153057 -0.0037960866 4.9020047 0.3097506 2.0227087 -2.519431 -0.29187652
1.6496588 -2.0526698 0.22746913 -0.014130039 -0.48824635 1.9799472 3.4072905 -0.6601389
1.7526191 3.24025 4.1674056 1.0982987 4.206023 -0.1885416 2.773819 2.3843064
2.965655 0.5770048 0.079386026 -0.0014919742 0.2547337 4.238208 -0.0050476394 3.1661432
3.389636 6.153045 0.6623025 -0.27998978 -0.023240624 1.2760593 -0.008560121 -0.6265729

fc3.weight f4 [5, 64]
00000000: 30c2 fbbd 984c 44bf 4c2f 9abd 0934 98c0
00000010: dab8 a8be 2d83 ed3e 9561 233f 00b4 55bb
00000020: 956b 8740 e71e 0c3f e1b4 27be c8c1 303f
00000030: 4fe6 393f 21bd 3bc0 f68e 3d3f 8d50 8f40
00000040: afaa 0b3f 9440 7640 e853 6cbd 7b9f 5340
00000050: 89e0 723f 3090 b1bd 6448 a8c0 d164 84bf
00000060: 0c69 e5bd c648 d13d 917c 41c0 6484 0dc1
00000070: fbbf 5f3f 9ad8 34c0 80be 36c0 45d8 ce3c
00000080: bb86 093f 1611 9cbf c1cd 983f a2f6 943d
00000090: cfc0 2040 8267 ad40 0655 e040 7039 c0bd
000000a0: 90e9 3740 e341 8540 6147 aac0 d834 acc0
000000b0: 777e d53e f465 023a d447 583f d8d7 1740
000000c0: 0e6c 363f 8187 3c3f c0c8 7d40 d9d8 263f
000000d0: abf0 c93f 3b6f a23e 70c9 e3bc 521c 1d3f
000000e0: d51e 653e 9ed6 68c0 5b93 1d3f 2267 97bd
000000f0: f49d e03d 8393 013f 4c6a 153d 6c3e 073d
00000100: 2054 353c 2828 d83e d601 eabd 976e e53f
00000110: 91b6 0340 db0b 763c cf75 003f 40f7 52bb
00000120: 8e80 eb3f 5f98 0d3f 7553 2fbf e27a 843e
00000130: 3d9f 6e3e 5b26 1b40 f701 da3e 6570 8d3f
00000140: 48d6 bd3f 8380 8640 d25a bdbd d0f0 6840
00000150: 0a41 613f 101a 713c 36a4 9cc0 2c51 563f
00000160: a02c 3abc 268e abbd 338d aa3e b44d 80c0
00000170: 9549 af3f b9ff eebd 4de5 88bf f0e8 50bc
00000180: 116b 0d3f fbda a3bf b261 873f d4b8 043d
00000190: c5fd 9040 7c5d 4540 196e 0a40 760a bdbd
000001a0: b3eb 0240 934d 1540 0da6 a0c0 f6f0 9ac0
000001b0: 2f5f 1bbe 9e79 84bd 45bf 5b3f c636 ab3f
000001c0: 76a1 923d 99c3 8d3f 9c4b 7240 5dc7 f63f
000001d0: b7da 723f 5dd2 bbbe 16ec b0bd f3fd f63d
000001e0: e0f5 52bd 6288 6bc0 baad 923f 4ec6 b1bd
000001f0: f691 a3bd 881a 3f3f 9060 213c 6cff 48bd
00000200: d4da 493d cd52 633b 7816 d83d c058 5040
00000210: ca69 f33f a9f2 ed3c 0313 123f d8eb 453d
00000220: 8f73 fe3f b308 1c3f 0129 4bbf b817 a63e
00000230: c17f c33e a5ab ff3f c9ed d33e 8d50 1440
00000240: 2ff4 de3f 7faf 6540 d89e 273e 103c af40
00000250: c967 583f 9c21 513d f9bc afc0 1983 e0be
00000260: caaa aa3d 346e 2fbd 0175 c1bd e614 8ac0
00000270: f2df a93f 073d ff3f 1cef 1ec0 e873 6dbd
00000280: 7237 213f 0d9b 39c0 2d17 8c3f 2eab 003d
00000290: d9ed ba40 22d2 0240 1dc8 afbe 92a2 823d
000002a0: 5285 2d40 42a7 0240 d28d ccc0 2e3c abc0
000002b0: 3bba 7c3d 7a78 abbd cf7f f53f 277f cc3f
000002c0: 6d5a 8c3e 1697 aa3f 0899 9940 1735 823f
000002d0: a992 a93f dde2 adbe a8fb 973d 1833 903e
000002e0: 2d85 94be 6a51 78c0 b247 2d3f f85a a1bd
000002f0: c06e c63d 10ea 163f ac27 cbbd 284e 66bd
00000300: 2671 89bd 8441 99bf 3493 443d c379 40bf
00000310: 43c4 c63e 51e7 1bbe c5ea 1f3f 8813 913d
00000320: 7f6c 0e40 5f1a 4d3e babe 58bf 57fc 10be
00000330: 070c 693d f1a4 1940 6676 50bc 32a8 a53f
00000340: fcd5 ac3f 909f 9140 91c5 01bd 4c78 5240
00000350: ffed 003f 68c0 573d 10fd 9cc0 6c04 b43f
00000360: 684e 773d 5820 0e3d 6f9c a43f 12b7 30c0
00000370: 80c6 e03f 52c2 03c0 5511 abbf f596 0ebd
00000380: ddb4 f0bc ea37 ebbf da81 5c3f 0c67 6dbd
00000390: 6a64 bb40 907e ca3f 5567 4840 24c2 51bd
000003a0: e370 0440 d47f 4c40 0934 4dc0 d756 96c0
000003b0: ab83 94be 90c3 77bc 30a4 9a3f c920 913f
000003c0: 6344 47be 6a4e 363f 7ed6 243f bcc1 393e
000003d0: 9dce 983f 6fc2 febe 6c1d 3ebd f76f 3b3e
000003e0: 8a31 9abe 9e25 5ec0 6503 773f d862 fc3d
000003f0: c63c a73d 7b09 833e e8e7 39bd 7eef a53d
-0.12292898 -0.7667937 -0.075285524 -4.756352 -0.3295353 0.46389142 0.63820773 -0.003260851
4.2318826 0.54734653 -0.16377594 0.69045687 0.7261705 -2.9334185 0.74046266 4.478583
0.5455732 3.8476915 -0.057697207 3.306609 0.94873863 -0.0867008 -5.2588367 -1.0343267
-0.11201677 0.102189586 -3.023228 -8.844822 0.87402314 -2.8257203 -2.8553772 0.02524961
0.5372121 -1.2192714 1.1937791 0.07273604 2.511768 5.418885 7.010379 -0.09385955
2.8736305 4.164293 -5.3212132 -5.3814507 0.41698048 0.00049742986 0.844846 2.372549
0.7125863 0.7364426 3.9653778 0.65174633 1.5776571 0.31725487 -0.027806014 0.6137134
0.22375043 -3.6380992 0.6155297 -0.07392718 0.10967627 0.5061571 0.036478326 0.033018515
0.01106742 0.42218137 -0.114261314 1.7924374 2.058018 0.015017475 0.5017976 -0.003219083
1.8398607 0.55310625 -0.6848672 0.25875002 0.23302932 2.424216 0.42579624 1.1049925
1.4831018 4.2031875 -0.09245838 3.639698 0.87989867 0.014715686 -4.8950453 0.8371761
-0.0113631785 -0.08376722 0.3331085 -4.0094852 1.369433 -0.11669869 -1.0694977 -0.012750849
0.55241495 -1.2801203 1.0576689 0.03240283 4.5309777 3.0838308 2.1629698 -0.09230511
2.045636 2.3328598 -5.02027 -4.841914 -0.15173028 -0.06468509 0.8583873 1.337609
0.071597025 1.1075317 3.7858648 1.9279591 0.9486498 -0.36683932 -0.0863878 0.12060156
-0.051504016 -3.6801991 1.1459267 -0.08680402 -0.07986824 0.7464986 0.009849682 -0.049071714
0.049280956 0.0034686804 0.105511606 3.2554169 1.9016659 0.029046373 0.5706026 0.04832062
1.9879016 0.60950774 -0.7935944 0.3243997 0.38183406 1.9974257 0.41392353 2.3174164
1.7418269 3.5888364 0.16369188 5.476082 0.84533364 0.051057443 -5.491818 -0.4385002
0.08333357 -0.042829707 -0.09446145 -4.315051 1.3271468 1.9940499 -2.483344 -0.057971865
0.6297523 -2.9000885 1.0944573 0.03141325 5.841534 2.0440755 -0.34332362 0.06378664
2.7112622 2.0414586 -6.392312 -5.351096 0.06170104 -0.083725885 1.9179629 1.5976304
0.2741274 1.3327358 4.7999306 1.0172452 1.3247882 -0.33962145 0.074210465 0.2816398
-0.29007855 -3.8799691 0.67687523 -0.07878679 0.09689093 0.589509 -0.09919676 -0.05622688
-0.067110345 -1.1973119 0.047991946 -0.75185794 0.3882161 -0.15224959 0.62467605 0.070838034
2.225372 0.20029591 -0.84666026 -0.1415876 0.056896236 2.4006922 -0.012723541 1.2941954
1.3502803 4.550728 -0.031682555 3.2885923 0.50363153 0.052673727 -4.9058914 1.406385
0.06037751 0.034698814 1.286024 -2.7611737 1.7560577 -2.0587354 -1.3364664 -0.034811933
-0.029383117 -1.8376439 0.8613564 -0.0579596 5.8560076 1.5819874 3.131307 -0.051210538
2.06939 3.195302 -3.206301 -4.6981006 -0.29006705 -0.015122309 1.2081356 1.133813
-0.19459681 0.712134 0.6438979 0.1814031 1.1938053 -0.49757716 -0.046414778 0.1830443
-0.3011592 -3.471046 0.96489555 0.123235404 0.081658885 0.2559317 -0.04538718 0.0810232

fc3.bias f4 [5]
00000000: dea4 093d 7daf 0cbf 44eb 58bf d3cb 00be
00000010: 782b 8abd
0.033604495 -0.54955274 -0.84733987 -0.12577753 -0.06746572
